SearchClassifier/word_classifier/models/model2.pt (torch_old, 168230 bytes, 6 tensors)

i2h.weight f4 [128, 185]
00000000: bcac 6cbd d8a8 96bc bed5 36bd f934 9cbc
00000010: cc0d 9cbc c867 3e3d 8d61 ca3c 545a b8bc
00000020: 8e39 a2bc c346 073d 5e1b b0bc 6429 99bd
00000030: f551 8a3d 974c 0cbd cf21 84bd 36dc 07bd
00000040: c937 f2bc 9990 31bd be61 30bc 7690 b13c
00000050: 89e1 453d d196 333d 3ff0 343d f2c6 6d3d
00000060: bd37 f03a 0e65 3a3d 3794 a23d 8fe8 c83b
00000070: 4e57 323d 15ee 87bd 2815 533c 0656 0f3d
00000080: 7c52 403d 60dd 4cbb 61b3 4fbd 2d6e d6bc
00000090: eee4 61bd ad8e fe3c df40 673d ff6c 46bc
000000a0: 72d5 983d 7ecf 733c ff86 653d ba32 81bc
000000b0: 0b74 413b 678b 72bc 0dd3 773d 8605 393c
000000c0: fdad 03bd 1f3c 73bb 43e9 a8bc a70c 8c3d
000000d0: fdb9 303e ca18 8dbd dc1c 82bb a0f5 32bc
000000e0: acdd 96bc e3bd 7dbd 6fbf 833d 0332 c7ba
000000f0: bfbb 6cbd dc0e 693c 24a4 373c 299e 703c
00000100: 4256 073d e3f0 62bd f8da 793d e5a6 a13c
00000110: a1a2 75bd 6388 f23c 1240 86bc 1595 833d
00000120: 8d75 6ebd 045e 553d f95e 6cbc 1c42 813c
00000130: 3770 81bc 1494 1a3d 845f e4bb 6ab7 20bc
00000140: 0d60 23bc 47aa 90bd 3ea3 943c 162c 0b3b
00000150: 3512 043d 7fdf 73bd 2a17 e7bb d000 e5bc
00000160: c37d 87bc c28e 8cbd fee0 9bbc e5d1 c6bc
00000170: 7378 50bd 4487 023d 6e83 953d 9ab0 8cbd
00000180: 04b0 6b3d ae79 d93c f73a 823d c895 45bd
00000190: 9c48 693d 9deb 4fbc b95c 10bb fd7a 35bc
000001a0: 0dab 71bd 8f92 623d e524 e5bc 9640 1cbc
000001b0: 4855 303c e28e 8bbd 494c e33c 38cb 88bd
000001c0: 531f 92bd 1113 fb3c adc8 81bd 20ba 783d
000001d0: bd6b 343c 0819 f2bc 34d3 243d e946 843c
000001e0: affb 853d 6c78 453d f491 863c eb49 51bd
000001f0: 5ad9 5bbc 7b5f 423b dbdf 983c 7c35 8abd
00000200: 8252 64bd e260 9f3d b9f1 67bd 1e3d ef3c
00000210: ccb6 51bd 24d7 483d c029 443d 5c75 e53c
00000220: f51d 6bbd 5ac7 66bd 9e5b 033c 5832 e1bc
00000230: 4ed1 18bb a895 013d 5c4a 89bd c9e9 943d
00000240: c3af 10bc 10ae 483c ca7c 143d 5db0 013d
00000250: 2f4b 3e3c e998 3dbd eb09 abbc ee0d 703d
00000260: 0630 e03a 3961 ea3c f1f1 5d3d 88bf 863d
00000270: 7da2 cebc c666 f73c 5baa e83c 86a6 d5bb
00000280: 5ddd 3f3d 8c50 403d 99d0 3bbd 8d34 7bbd
00000290: 6378 053c 8696 89bd 87b8 553d df67 0c3d
000002a0: 2757 163d c3c8 8dbc 9e94 fabc 8679 473d
000002b0: d4e8 963d 4b7b 973b c40b ed3c 0a2b 4fbd
000002c0: 364a b9bc b43c 85bd 6fbd 2ebd 7cff 2ebd
000002d0: 0c88 4bbd 6cd5 d73c 92bb f13c 9ae6 743d
000002e0: e5f0 903d c5e2 3b3d ec25 403d 687e 993c
000002f0: 2bfc 81bd 562a 053e 818f e4bb a015 bb39
00000300: cf8d 6dbb ed0f 7ebd 82e4 733c 4680 ab3a
00000310: 4b4d 68bc 4d77 25bd a698 86bd 20d9 95bd
00000320: 5e5f 713d b0a5 e2bb 519c d0bd e88d 6b3d
00000330: bd2b 87bd 2936 bdbb e386 81bd 9227 85bc
00000340: 1911 19bd 659c 453d 3e19 49bc a79d ee3a
00000350: 966f b23c a0fa cbbc 2e0c e63b a12e 133d
00000360: 445a 173d 0838 343d c710 4d3d 089d 2f3d
00000370: 2a51 edbc fa7c 833d 1123 c13c 9317 773d
00000380: 0409 ec3c d8b7 65bd 6efe 773d 276e 333c
00000390: 6e9c a4bc b4a9 b6bc 8f9c a23c c6b6 ca3c
000003a0: 277d 233c e165 98b9 5e32 a23c b230 00bd
000003b0: dbc5 893d da5e bf3d 4161 2cbb 6cce 6a3d
000003c0: de20 3fbd b142 1c3d 3a1d 673d 3217 f039
000003d0: be83 b63c 4177 62bd aae7 03bd e110 e9bc
000003e0: 66f1 973d 0d01 3abc 0608 7fbc a71b 073d
000003f0: 3d1f 1fbd 994b 57bd 82e9 643d a318 4c3d
-0.05778192 -0.018391058 -0.044637434 -0.019068228 -0.019049548 0.046485692 0.024704719 -0.02250401
-0.019802835 0.033026468 -0.021497425 -0.07478598 0.06753913 -0.03425273 -0.06451761 -0.033168994
-0.029567616 -0.04335079 -0.010765491 0.02167533 0.04831079 0.043845 0.04417443 0.058051057
0.0018327158 0.04550653 0.07938426 0.006131239 0.04354029 -0.066372074 0.012883462 0.034994148
0.046953663 -0.003125988 -0.05070818 -0.026175583 -0.055149965 0.031073892 0.05645835 -0.012110948
0.074625865 0.014881013 0.056036945 -0.015771259 0.002951863 -0.014803744 0.060504008 0.011292821
-0.03214835 -0.0037114692 -0.02061904 0.06838351 0.17258449 -0.06889494 -0.0039707255 -0.010922819
-0.018416248 -0.06194867 0.064329974 -0.00151974 -0.057796236 0.014224734 0.011208568 0.014686146
0.033041246 -0.05540551 0.06099984 0.019732902 -0.059969548 0.02960605 -0.016387973 0.064249195
-0.058217574 0.052091613 -0.01442694 0.015778594 -0.015800579 0.037738875 -0.006969394 -0.009809354
-0.009971631 -0.07063728 0.018144246 0.0021235994 0.032243926 -0.059539314 -0.007052322 -0.027954489
-0.01653946 -0.068631664 -0.019028183 -0.024270007 -0.05089612 0.03186728 0.07300459 -0.068696216
0.05754091 0.02654728 0.06358903 -0.048238546 0.05695401 -0.012690452 -0.0022027923 -0.011076686
-0.059001017 0.05531555 -0.027971694 -0.009536883 0.01076252 -0.06814362 0.027746337 -0.06679386
-0.07134881 0.03064874 -0.06337104 0.060724378 0.011012015 -0.029552951 0.04024048 0.016147094
0.065421455 0.048210546 0.016427018 -0.051095884 -0.01341852 0.0029658962 0.01866143 -0.067484826
-0.055742748 0.07782151 -0.05662701 0.029203948 -0.05119972 0.0490333 0.04789138 0.028010063
-0.057401616 -0.05634246 0.008017449 -0.027489826 -0.0023318115 0.031636864 -0.06703636 0.072711535
-0.008830967 0.012248531 0.03625182 0.031662334 0.011614605 -0.046288405 -0.020878753 0.058607034
0.0017104156 0.028610813 0.05418581 0.065795004 -0.025223965 0.030200373 0.028401544 -0.0065200953
0.046841968 0.046951815 -0.04585323 -0.061329413 0.008146378 -0.06718163 0.052177932 0.034278747
0.03670421 -0.017307645 -0.030588444 0.04869988 0.07368627 0.004622852 0.028936274 -0.050578155
-0.022618394 -0.06505719 -0.042661127 -0.042724118 -0.04969029 0.026346885 0.029508386 0.05979023
0.07077197 0.04587056 0.046911165 0.018737033 -0.06346925 0.13004431 -0.006975115 0.0003568353
-0.0036247855 -0.062026907 0.0148860235 0.0013084493 -0.014178584 -0.040396977 -0.06572084 -0.07316804
0.05892884 -0.006916724 -0.10186065 0.05750838 -0.06600139 -0.0057742787 -0.06324556 -0.01625422
-0.03736982 0.048244853 -0.012274085 0.0018204943 0.021781724 -0.02489978 0.007020495 0.03593314
0.03695132 0.043998748 0.05006483 0.042874366 -0.028969366 0.06420322 0.023576291 0.060325217
0.028812893 -0.05608353 0.060545377 0.010951555 -0.020094123 -0.022297718 0.019850044 0.024745356
0.009978569 -0.00029067605 0.019799408 -0.03129644 0.06727191 0.093442634 -0.0026303085 0.057325765
-0.046662204 0.03814954 0.056424357 0.0004579365 0.022279616 -0.05528951 -0.032203354 -0.028450431
0.0741909 -0.01135279 -0.015565878 0.032985356 -0.03884815 -0.05256233 0.055886753 0.049828183

i2h.bias f4 [128]
00000000: 1712 4d3d ec88 e2bc bb7d 393c edf1 b7bc
00000010: 85eb 863d 603a 73bc bab4 8dbd 1b5d df3c
00000020: 6bbc 813d be4e 7ebd c1a5 203d 6817 c03c
00000030: 7b9b 0fbd 17d8 97bc ec26 52bd 0b70 a5bd
00000040: 5ee7 43bd 130a 683d 36bd c03c 21e2 a33b
00000050: 8174 ad3c c91b c1bc a90f b8bc f758 e3bc
00000060: 9c68 7a3d 8bf4 933d 6349 003d 9e77 163d
00000070: e747 c83b 48a7 36bc b5ed 4ebd ba7e 7fbd
00000080: 1a91 14bd e6cd 563d 3faa fd3c b972 b03d
00000090: b557 6fbd 0dd2 943d 1e6b 5ebc 6a22 2e3d
000000a0: 3edd 86bc 5856 fb3c b952 963b 46bf 483d
000000b0: 2a21 903d 3dc8 06bc ab53 eabd ca01 313d
000000c0: 5886 2bbd 701f 8d3c 1bc5 94bd bd3d e73c
000000d0: d3db 8bbd a36d 7b3d bb78 293d 67cb 6c3d
000000e0: 16fc 0e3d 0b25 20bd 3a37 b73b 9641 adbd
000000f0: d8c0 3f3c 9c4c e43b 591c 2bbd 7120 073b
00000100: e505 0e3d 2ab0 98bd ded5 29bd 6bca f2bc
00000110: 369d a53c afed 98bd 66b6 c63d e2d8 a0bd
00000120: 5440 6e3d d736 3e3d 8cc2 063d 7e24 343d
00000130: e7d9 f93c f560 7bbd eea6 393d a010 90bd
00000140: a741 803d aa91 003d a4c7 8ebd f51f 3cbd
00000150: b82c 45bd 466d 08bd 6a9b 5cbc d53e 2e3c
00000160: 5ea0 dfbc 2cc2 923c 5344 493b e3d5 92bd
00000170: bcad 2e3d 9ddf c43c ec0b 9c3c 0754 033d
00000180: e93f c93b 234e 51bd 4662 ac3b abc1 af3d
00000190: d21a 45bd a3a5 f03b 0e2d d63b ac03 213d
000001a0: d8ac 573d 544a c2bd 84e8 0c3c 51e1 8f3b
000001b0: cb53 1cbd e3b3 493d 1ef6 0c3d 77d9 293d
000001c0: 32a4 f9bc 63f2 6a3d 1f96 3f3c 5657 c73d
000001d0: f465 97bd 332b 92bc 4ab5 e13c 86f0 4ebd
000001e0: cd60 8f3c 2704 96bd eea7 7dbc 99e1 553c
000001f0: 834d 3abd 57a6 8fbc 5f68 7cbd 6ee1 143c
0.05006608 -0.02765318 0.01132148 -0.022454226 0.065878905 -0.014845461 -0.069192365 0.027266076
0.06334766 -0.062086813 0.039220575 0.023448661 -0.035060387 -0.018535657 -0.05130665 -0.08078011
-0.04782807 0.056650233 0.023527723 0.005001322 0.021173717 -0.02357282 -0.022468405 -0.027752383
0.06113492 0.07224377 0.031319987 0.03673517 0.006112087 -0.011148281 -0.050519664 -0.062376715
-0.036271192 0.052442454 0.030964969 0.086156316 -0.058433253 0.072666265 -0.013575343 0.04251329
-0.016462918 0.03068082 0.004587498 0.049010538 0.070375755 -0.008226451 -0.1144174 0.043214597
-0.041876167 0.017226905 -0.072641574 0.028227681 -0.068290375 0.061383855 0.041374903 0.057811167
0.034908377 -0.039097827 0.0055913003 -0.08459775 0.011703692 0.0069671404 -0.04177508 0.0020618702
0.03467359 -0.07455476 -0.041463725 -0.029637536 0.020216566 -0.074672095 0.097027585 -0.07853867
0.058166817 0.046439018 0.032900378 0.043980114 0.030499412 -0.061371762 0.045325212 -0.07034421
0.06262522 0.031388916 -0.06971672 -0.045928914 -0.04813835 -0.033307336 -0.013464788 0.0106350975
-0.027298149 0.017914854 0.003071089 -0.07169702 0.042646155 0.024032408 0.019048654 0.032062557
0.006141652 -0.051099908 0.0052607385 0.08581861 -0.04812128 0.007343964 0.0065361327 0.039310142
0.05265507 -0.09486833 0.008600358 0.0043908735 -0.03816585 0.04924382 0.034414403 0.041467156
-0.030473802 0.057360064 0.0116935065 0.09733455 -0.07392493 -0.017842865 0.027552266 -0.05052235
0.017502213 -0.07325011 -0.015481932 0.013054275 -0.045484077 -0.017535372 -0.061622974 0.00908695

h2h.weight f4 [128, 128]
00000000: 7837 f83b 80a8 93bd 60f6 223c d865 bebd
00000010: 72ad adbd cca6 9f3d 2c2d 203c dac8 1a3d
00000020: f1a2 97bd fc15 dbbc d731 a2bd fd81 b9ba
00000030: bd26 4c3d 10c5 1c3d 998a 963d 05ce 05be
00000040: 1f59 c3bd 507d 813d 3661 79bc ce0c f7bc
00000050: aad9 7d3b bea5 14bd 1667 6ebb 757f acbd
00000060: e55d c5bd 28ca b7bc 3249 d2bc c28d 7f3d
00000070: 3efa 47bc 0fa9 8b3d 84bf a2bd 09f8 b13d
00000080: 7fa8 36bd 15bc c33d f6fb b73c 4176 0b3d
00000090: c880 a33d c00e 41bd 8368 983d 83ff 55bd
000000a0: 1bdc 3bbd fe1b 913c 29b8 6fbd b620 74bd
000000b0: c99e 273d cc89 99bd c006 c7bd be0a 653d
000000c0: 9b9e ae3d d07a 9e3c a034 803d cdc5 18bd
000000d0: bd15 eb3c d7e6 d53d 91a7 86ba 408b ad3d
000000e0: 64f3 2bbd bdd9 93bd 6cef aa3c 9416 173d
000000f0: 1eac c23b 3e99 9dbd 73c6 43bd a1d0 813d
00000100: f272 40bc 5316 60bd ae8f 0b3d 52d9 5abc
00000110: 8a5b a33d 1e65 e8bc 446c fdbc 1e4c f33c
00000120: 8eb4 c9bd 4de7 8bbd 4fd6 2abd ecd0 38bd
00000130: 5c39 4f3d f7ee 10bd 0bf8 7d3d 3afb ebbc
00000140: 2bf9 643d 80f4 8f3b 356d 46bc 4f5c 40bd
00000150: 2124 95bd 23a4 28bd de58 353d aade 9e3d
00000160: e020 85bd bc4d dbbd 3f38 b13d f64f a3bd
00000170: 9c39 753d acd4 973d e50d 813c 8f87 69bd
00000180: 8a5d c73d 381d dbbd a03d d1bd 2b1f 4f3c
00000190: 0a61 803c c07d 37bb e9ba 983c 65d5 8c3d
000001a0: ff4f b03c b7d2 4d3d 2570 033d 1620 60bd
000001b0: e93c 793d 95b6 1bbb a73d 8c3a 34ca f33c
000001c0: cbe1 f6bc e287 9ebd 58c9 1f3d a87b a23d
000001d0: b7ee b03b 80cc 27bc e09b 1c3d 6e4c c33c
000001e0: 494b 833c ad7f a23d da8d f6bc 064e c23d
000001f0: 961b 213c 8b59 303c f333 80bd f8c0 36bd
00000200: bacc 8e3d c1a6 ac3d 88f2 57bd 8863 453d
00000210: f62a 8bbd 4c79 953d aa8c 703c 5d22 8b3d
00000220: 6608 6fbd f282 c6bd e44f 1dbd 0d53 823d
00000230: f939 abbd 68b7 bb3c 0a2c 333d 0018 a2bd
00000240: 9e45 723d dcad e63c 2ecf bcbc f437 2b3c
00000250: b9db c038 3aca 23bd 9370 b8bd e7cd 943d
00000260: 3ed7 a8bd 1535 77bc 2bc4 6a3b 9ee7 863d
00000270: f745 863c 4f1f 85bd aa3d 363d c435 093c
00000280: 765f 8d3d 7e62 a53d b945 42bd 02fb 4dbd
00000290: 2b83 cf3c 37ec 9c3d 89d8 423d 395d a43a
000002a0: 3463 4dbd 40e6 833d 6b1d 7b3d fbfc 1fbd
000002b0: 652e 163d 90b6 6fbd 7312 8dbd af2f 873d
000002c0: 2edd 78bd a20c 3cbd b69d 913a 5256 993d
000002d0: 1754 b53c 152a a6bc 9a94 2aba c9ef a63d
000002e0: 6279 4bbd bb7c 9dbd 06cd a2bd a907 1abd
000002f0: 2eaa 9e3d 0cea 4e3d d7af 55bc 5fc1 f23c
00000300: 8907 abbd 00bc 743d a8dd d23a 938a 9c3d
00000310: 458c c83c 7b33 5b3b 2033 f1bc 6f94 65bd
00000320: 689b 003d 85b7 51bd f84c 383c ea1b 4e3d
00000330: 7fd2 81bd ebcb 733d 5482 173d 8fcc 18bd
00000340: 7ad1 933d 1afd 34bc 0ff7 bcbc d991 03bc
00000350: 5c8f 603d 364b b53d 8fdc 953c cee5 fe3c
00000360: 8e2f 8b3d 9987 383d 7db1 803d 6ac5 d93a
00000370: 52d8 243d 9f11 e53b e85f ad3d ed35 413d
00000380: 38f6 803d 26d2 cf3c e8d2 803d 692a c73d
00000390: a5bb babd 3b63 c8bd c778 aa3d 3610 0f3d
000003a0: 414c f7b9 7c37 87bd 3039 b2bd a4c1 3dbd
000003b0: ff05 193c 2b04 983d 899c 283d 03ba 81bd
000003c0: 8e68 cbbd aecc 273d bc4b 0c3c 5b5a fd3c
000003d0: 6262 aebd dc6c 12bd f609 3bbd 0adc 7bbd
000003e0: ff68 b83c 687d 3f3d f945 78bd 8624 a7bd
000003f0: 15ee 703c cf12 2ebd 8054 f1bc 570e 8dbd
0.0075749718 -0.07209873 0.009946436 -0.09296769 -0.08480348 0.07795486 0.009776395 0.037789203
-0.074041255 -0.026743881 -0.079196624 -0.0014153119 0.04984163 0.03827387 0.07350654 -0.13066871
-0.09538483 0.063227296 -0.015220931 -0.030157473 0.0038734474 -0.036290877 -0.0036377362 -0.08422748
-0.096370496 -0.022435263 -0.025669668 0.06239105 -0.0122056585 0.06819355 -0.07946685 0.08689887
-0.044594284 0.09557358 0.022459012 0.034048323 0.079835474 -0.047133207 0.07441809 -0.052245628
-0.045864206 0.017713543 -0.05852524 -0.059601508 0.040922914 -0.07496986 -0.09718084 0.055918448
0.08526345 0.019345671 0.062600374 -0.037298013 0.028696889 0.1044442 -0.0010273327 0.084738255
-0.041980162 -0.07219265 0.020866118 0.036886767 0.005940928 -0.07695244 -0.047796678 0.06338621
-0.011746155 -0.05470879 0.03407257 -0.013357477 0.07976444 -0.028368529 -0.030935414 0.029699381
-0.09848891 -0.068312265 -0.041708287 -0.04512112 0.05059181 -0.035384145 0.06200413 -0.028806318
0.055901688 0.0043931603 -0.012110998 -0.046963032 -0.07282282 -0.041172158 0.044274203 0.077573135
-0.06500411 -0.10708186 0.08653306 -0.07974236 0.059869394 0.07413611 0.015753696 -0.057014044
0.09734638 -0.106989324 -0.10216832 0.012641708 0.015671272 -0.0027998537 0.018643813 0.06876639
0.02152252 0.05024978 0.03208937 -0.0547181 0.060849104 -0.002375995 0.0010699526 0.029759504
-0.030136963 -0.07740761 0.039010376 0.07933742 0.005399551 -0.010241628 0.03823459 0.023840155
0.01602711 0.079345085 -0.030096937 0.09487538 0.009833237 0.010763536 -0.062599085 -0.044617623
0.06972642 0.08430243 -0.05272153 0.048190624 -0.067953035 0.07298526 0.014681974 0.06793664
-0.05835762 -0.096929446 -0.038406268 0.06363497 -0.08360667 0.022914603 0.04374317 -0.07914734
0.059148423 0.028159074 -0.02304801 0.010450352 9.1962e-05 -0.03998778 -0.09005847 0.07265835
-0.08244179 -0.015088339 0.0035822492 0.06587146 0.016390784 -0.06500112 0.0444924 0.008374635
0.06902973 0.080754265 -0.047429774 -0.050288208 0.0253311 0.07662242 0.047569785 0.001253999
-0.050143436 0.06440401 0.061307352 -0.03905962 0.03666534 -0.058523715 -0.068882845 0.06600892
-0.06075781 -0.045910485 0.0011109624 0.074871674 0.022134824 -0.020283738 -0.0006507129 0.08151204
-0.049676307 -0.07689806 -0.07949261 -0.03760496 0.07747303 0.050516173 -0.013042412 0.029633222
-0.083510466 0.059749603 0.0016087787 0.076436184 0.024480948 0.0033447433 -0.029443324 -0.05604976
0.031398207 -0.05120041 0.0112488195 0.05031959 -0.06338977 0.059520643 0.036989525 -0.037304457
0.07217689 -0.011046672 -0.023067025 -0.008030378 0.05482422 0.08852236 0.018293647 0.031115439
0.0679618 0.04505119 0.06283853 0.001661462 0.04024536 0.006990626 0.08465558 0.04717057
0.062969625 0.025368761 0.06290227 0.09724886 -0.091178216 -0.09784552 0.08323818 0.03492757
-0.00047168325 -0.0660238 -0.08702314 -0.04632725 0.0093398085 0.0742267 0.04116491 -0.06334307
-0.099320516 0.040966682 0.008562978 0.030926874 -0.08514859 -0.035748348 -0.045663796 -0.061489142
0.022511004 0.046750456 -0.060613606 -0.08161263 0.014705201 -0.042498406 -0.029459238 -0.06887501

h2h.bias f4 [128]
00000000: c812 03bd e905 813d df23 3abd 78cc 82bb
00000010: e6d2 5c3d 2487 a33d c1bc 9b3d 5b76 153d
00000020: 7e9a 2e3c 6d9c 6c3c 2278 abbc ce8a 863d
00000030: 0f80 88bd 04da 443d d8e4 ea3c 6a88 193d
00000040: 285d 8abd 12ff 4abc c50d 57bd ce6d 00bd
00000050: 2349 44bb ac30 1a3d 96cf e5bc 0fcd b13d
00000060: f19e a73d 9bb1 953d 6ab5 95bc 64f8 84bd
00000070: 10aa 6a3c 4554 23bd ed57 ba3d b1b7 0e3c
00000080: 76bf 08bd acf1 c0bd 47ae 953d ba56 633d
00000090: e50f a8bd adb8 76bd 4a0d 30bd 5efa edbb
000000a0: 6a9c b4bd a1ad b5bd a721 04bd a509 d9bb
000000b0: 2dd9 133d 8edd 16bd 576a f7bb 7d80 203b
000000c0: 2923 8a3d 5640 633d 8080 33bd b7a3 17bb
000000d0: 27ce a23d 4e06 553d 255c 403d bacb 05bd
000000e0: 2260 863d 6e13 34bd ccd4 a6bd c4d8 963d
000000f0: a57e 0d3d fb4b 563d 323e 4dbd 312d 03bc
00000100: 0b86 36bd 238a 803d f387 7e3d 28e9 e73c
00000110: 0fed 82bd 4485 b53d 34ca 873c 52dc 6bbd
00000120: 2985 a0bd d288 55bd 71b9 ba3d ba8b bd3c
00000130: 172a af3d 7758 58bd 8082 ef3c dd13 dd3c
00000140: f6fc a23c de9d 17bd 125e 96bc 3636 cb3c
00000150: f231 83bd 82cf a7bc aa2c 24bd 08ad a4bd
00000160: e1e0 1f3d 1cdc b13d df7a 00bd 1ed1 f53c
00000170: 56b1 ca3c 7ea0 383d 5a95 04bd e5df 883b
00000180: f46c 65bd 76e1 c43c 3703 eabb c495 b2bd
00000190: c786 103d 2be7 5c3d 695b 893c da66 80bd
000001a0: 2779 40bd 8700 aabc 4dec 31bd 22c0 7bbc
000001b0: b1a0 c8bc 679b 0fbd 64bb 2d3d 3f20 80bd
000001c0: 291f e03b 363f 68ba b877 fbbc b383 6a3d
000001d0: 4965 d3bd 00e9 1a3d 0981 66bd dda0 693d
000001e0: af6f 293c c32a 113d 4d93 983d 9e48 4abd
000001f0: f547 f1bd e99b d5bb 4101 3ebd 8b82 9bbd
-0.032000333 0.062999554 -0.045444366 -0.0039916597 0.053912066 0.079847604 0.07604361 0.036489826
0.010656951 0.014441592 -0.020931307 0.06569444 -0.0666505 0.04805948 0.028673574 0.03748361
-0.067560494 -0.012389915 -0.052503366 -0.031354718 -0.002995082 0.037644073 -0.028053086 0.0868169
0.081846125 0.07309266 -0.018274982 -0.06492689 0.014322773 -0.039875288 0.09098802 0.008710788
-0.033385716 -0.09421095 0.073086314 0.05550263 -0.08206157 -0.060234714 -0.042981423 -0.007262512
-0.08818896 -0.08871008 -0.032258656 -0.006623464 0.036095787 -0.036832385 -0.0075505185 0.0024490647
0.067449875 0.055481277 -0.04382372 -0.0023138353 0.07949477 0.052007966 0.046962876 -0.032664992
0.06561305 -0.043963842 -0.081460565 0.073655635 0.034544606 0.052318554 -0.050108142 -0.00800638
-0.044561427 0.062763475 0.06214137 0.02830942 -0.063928716 0.08863309 0.01657591 -0.05758316
-0.07837898 -0.052132435 0.091174014 0.023137916 0.0855295 -0.05281874 0.029237032 0.02698701
0.019896012 -0.03701579 -0.018355403 0.024806123 -0.06406011 -0.02048469 -0.040081657 -0.080408156
0.03903282 0.08684561 -0.03136718 0.030006941 0.024742763 0.045074932 -0.032368995 0.004177081
-0.05601211 0.02403329 -0.0071414965 -0.08719972 0.035284784 0.053931396 0.01676722 -0.062696174
-0.04699054 -0.020752205 -0.043438245 -0.015365632 -0.024490686 -0.035060313 0.042415038 -0.062561505
0.006839652 -0.0008859517 -0.030696735 0.057254504 -0.10322053 0.037819862 -0.0562754 0.057038177
0.010341569 0.03544117 0.074499704 -0.04938566 -0.11781303 -0.00651883 -0.046387915 -0.075932585

i2o.weight f4 [8, 185]
00000000: ca07 403b 5ebb 8abd 5f44 163d 3153 4cbe
00000010: b4c0 bdbe 30ab a9bd f778 86bd a16d a4bd
00000020: 6465 36bd 5dd5 36bd b810 37bd 5c46 dabc
00000030: 344b b6bd 1cbd 22be 21c1 3e3d b24f 31bd
00000040: 2259 abbc fe91 c13c fbee aa3e c88b f6bd
00000050: 80a1 00bc 09d7 82bc 406e 57bc 60ad 233c
00000060: c9b6 29bd e0e3 6a3b 3874 9c3c 224f 423e
00000070: 7865 89bd ea3c ddbc 5e64 de3d e373 57bd
00000080: d4e4 82bd c01d 073b 59a8 fa3b 4c14 623d
00000090: f411 7e3d 152c 943d 8e7a 9cba 9c51 863d
000000a0: 862e 06bd 2687 cbbc 6db2 96bd a228 f2bb
000000b0: c9ea c0bc 73b4 99bd e8f2 ee3d b8fb 12bc
000000c0: 3ff4 df3d 47b8 03bd 8254 96bd 167b 83bc
000000d0: 5533 eb3e 61c7 fabc b2cf 88bd d1dd 20bd
000000e0: 7c23 773d 2e81 2bbe 37fc 9cbb f816 a93d
000000f0: 1760 38bd 6b35 83bd d18e 613d d390 adbd
00000100: 16fb c9bd fc56 f43b ec1e a53b 8619 3bbc
00000110: c7bf 0c3c 5787 11bc c3e8 5a3d 8100 d53c
00000120: f90e 183e a7f9 d0bd 4e3a b6bd a46a 5abd
00000130: ade5 c93d c5c6 273c a281 8fbd a14c 60bd
00000140: 95cc 72bc d48d eeba dd89 823d 7f3b 653c
00000150: e166 b0bc 12a9 093d 0efd 54bd 98c2 d8bb
00000160: 55e0 bdbc 2c40 ac3d fed3 f0bd 9fa0 2dbd
00000170: b888 b53c b4ce dabd c81c d43d 8f93 573c
00000180: 3319 da3c f5f9 333d a85e 7c3c 6a58 43bc
00000190: 6d3a 833d ac82 b3bb 2da4 7bbd b70b 6bbd
000001a0: a05b 293d d997 a13d d5d2 b7bd 447b 6c3d
000001b0: 0e89 a5bc b356 da3c 056c 89bd c525 24bd
000001c0: d1bc b83b 0f3c c43d 19fb 2a3c 24ac 71bc
000001d0: cabf 343d e1af 24bc ea0c 9a3d 3f72 953b
000001e0: 7a09 693c 934d c4bd 3445 2dbd 4d66 81bc
000001f0: ef80 40bc ed3d 6a3d d5dd 0c3e ae60 98bd
00000200: f94c 65bc 1f69 2cbc 297c 053e 14af 053e
00000210: 48b5 3c3d 1012 b73d fa1d 033d 8b58 07be
00000220: 1850 d7bb 8f46 80bd 1729 b3bd 6315 a03c
00000230: fd6d fa3d 607e 99bd ffaa 1ebd 4993 c1bd
00000240: efc9 543c 997b d63c 9665 2e3d 9de1 bb3d
00000250: c298 223d a13c 38bd 0413 183d b5f9 883c
00000260: b5eb c63b 038b 4bbb 4c44 7d39 5d70 1f3e
00000270: 65ff 4fbd 9e32 433d 74ee fa3c b024 a13d
00000280: 2851 04be 5a14 c73c 52a8 e6bd dd98 b33c
00000290: 4354 cfbc 7e71 8abd 7917 773d 4e1b da3d
000002a0: fbad 953d f0ac c93d 4dd3 0bbc e8ad 80bd
000002b0: ef1f 273d bf9d a0bd 433d 273d 8f32 8e3b
000002c0: 5af6 b63d 83db d93c 3824 b53d 2656 583c
000002d0: dba9 8e3d 26cf 9abd ad8e 053d c4f2 5a3d
000002e0: 05f3 45bc 00bc 46bd dca4 aa3c d648 e33c
000002f0: 9ccf 273e 7063 c2bd 0e55 403d 7b3a 8cbd
00000300: 1cdf d33c 4084 e53b d6dd b7bc e538 d8bd
00000310: 3d11 cabd ecf9 513b 5b81 3b3d 728e c63e
00000320: e65b a5bc b6ff a0bc ced7 dcbd 5e4a 8cbb
00000330: e1fe ab3e 20b0 86bd 7cbe cabd 97d4 69bd
00000340: 9a0a 953d 88b8 323d 34f1 a93c 54d0 0e3d
00000350: 670c 45bd 3a5e 873d 7c61 bcbc 9fcc 6dbd
00000360: 6e87 0bbd f1ae 8fbc e4a5 9f3c ad84 eeba
00000370: 12fc 93bc c90a 51bd d8b1 85bd fc3d 8cbc
00000380: 9e55 86ba 0ae6 0b3d e1a6 453d eb7f 693d
00000390: 1cc5 85bc 2f1e 423c 4e8b c9bc 1060 d33c
000003a0: 764b 4bbd c0d9 78bc b4bb a03a 7c60 923d
000003b0: 40f3 e7bb 4465 30bd 8113 bebc b496 863d
000003c0: fcc2 5a3d 6ea1 bbbc 0cb2 0e3e 0024 7dbb
000003d0: 16d5 3cbd 0983 abbd cf7b 72bd cb04 34bd
000003e0: e4d6 3c3d 2d18 cabd 209e 853d 55bc e2bd
000003f0: 93d2 b53d 621f 403d 32e1 a03d cdbf f1bd
0.0029301518 -0.06774019 0.036686298 -0.1995361 -0.37061083 -0.082846045 -0.06566041 -0.080287226
-0.044530287 -0.044637073 -0.04469368 -0.026644878 -0.089010626 -0.15892452 0.0465709 -0.043288894
-0.020916525 0.023629185 0.33385453 -0.1203838 -0.007851005 -0.015971677 -0.013148844 0.009990066
-0.041434083 0.003584139 0.019098386 0.189755 -0.06708807 -0.027006585 0.10858987 -0.052600753
-0.06391302 0.0020617098 0.007649463 0.055195138 0.06202884 0.072349705 -0.001193838 0.065585345
-0.032759212 -0.024844717 -0.07358251 -0.0073900977 -0.023549454 -0.07505121 0.116674244 -0.008971147
0.10935258 -0.032158162 -0.07340337 -0.016049903 0.459376 -0.03061265 -0.0668024 -0.03927404
0.060336575 -0.16748497 -0.0047908085 0.08256334 -0.045013513 -0.06406673 0.05506784 -0.08474889
-0.09862344 0.0074566584 0.0050390866 -0.0114196595 0.008590645 -0.008882365 0.053444635 0.026001217
0.14849462 -0.102038674 -0.088978395 -0.053324357 0.0985826 0.010240261 -0.07007147 -0.05476058
-0.014819284 -0.0018200227 0.063739516 0.013991236 -0.021533431 0.033608504 -0.051999144 -0.0066149943
-0.023178259 0.08410677 -0.11759184 -0.04238951 0.02215992 -0.10683957 0.10357052 0.013157739
0.026623344 0.04393955 0.015403427 -0.011922935 0.06407628 -0.005478224 -0.061435867 -0.05738422
0.041347146 0.07890291 -0.0897576 0.057734743 -0.020206954 0.02665267 -0.06710056 -0.040075082
0.005637743 0.09581768 0.010435843 -0.014750514 0.044128217 -0.010051698 0.075219944 0.0045607383
0.014223451 -0.095851086 -0.042302325 -0.015795851 -0.01174949 0.057187963 0.13756497 -0.07440315
-0.0139954025 -0.01052311 0.13035645 0.13055068 0.04607132 0.08938992 0.03201101 -0.1321737
-0.006570827 -0.06263458 -0.08748072 0.019541448 0.1222801 -0.07494807 -0.038737293 -0.094519205
0.012987598 0.026181983 0.04257735 0.09173892 0.039696462 -0.044979695 0.03712751 0.016720632
0.006070579 -0.00310582 0.00024153403 0.15570207 -0.050780673 0.047655694 0.030631281 0.07868326
-0.12921584 0.024301697 -0.11262573 0.021923477 -0.025308734 -0.06759928 0.06032512 0.10649739
0.07308575 0.09847438 -0.008534265 -0.0628317 0.04080194 -0.07842588 0.040829908 0.004339523
0.089337066 0.02659393 0.08844799 0.013204133 0.06965991 -0.07559042 0.03260677 0.053454176
-0.012081866 -0.048519135 0.020830564 0.027744692 0.1638779 -0.094916224 0.046956114 -0.06847092
0.025863223 0.007004291 -0.022444647 -0.10557727 -0.09866569 0.0032039834 0.04577766 0.38780552
-0.020185422 -0.019653182 -0.10783349 -0.004281326 0.33592895 -0.06576562 -0.09899613 -0.057087507
0.07277413 0.043633014 0.020744897 0.034866646 -0.04810753 0.06609769 -0.022995703 -0.05805647
-0.034064703 -0.017539473 0.019488283 -0.00181975 -0.018064532 -0.051035676 -0.06528062 -0.0171194
-0.0010248905 0.03415493 0.04825485 0.057006758 -0.01632934 0.011848017 -0.024602558 0.025802642
-0.049632512 -0.015188634 0.0012262971 0.07147309 -0.007078558 -0.043065324 -0.02320266 0.06571713
0.053408608 -0.022904124 0.13935107 -0.0038626194 -0.046101652 -0.08374602 -0.059200104 -0.043949883
0.046103373 -0.098678924 0.065243006 -0.11071078 0.088780545 0.04690493 0.078554526 -0.11804161

i2o.bias f4 [8]
00000000: aadc ca3d e682 0ebe 560a 6b3d 01db a03d
00000010: 3979 71be 7023 f2bd 0fff a33d 816c 913c
0.099053696 -0.13917121 0.057382904 0.07854272 -0.23581399 -0.118231654 0.08007633 0.017751934
