SearchClassifier/word_classifier/models/model2.pt (torch_old, 168230 bytes, 6 tensors)

i2h.weight f4 [128, 185]
00000000: c194 683d 3952 fd3c 4039 50bd 1863 e33c
00000010: 4ac8 ac3c f057 46bc bf7e 01bd ba93 e53c
00000020: a873 3d3d b162 923d c4c7 8dbc 2a02 d93d
00000030: 66c2 623d 57cd 7bbd 6076 5fbc b78b 78bd
00000040: ff5a a73b 1d09 39bd 83a4 babc 1d32 273d
00000050: e3f8 4dbd 0f2a 61bd 4e4b 3d3d a4e1 523d
00000060: 88ee 8bbd 0fb3 0cbd 3a4b 56bd 7449 3f3d
00000070: 910d 013b 7980 80bd 922a 303d a083 a03d
00000080: cca5 c1bc ff05 453d e4a4 a9bc a392 17bd
00000090: 4161 44bc ec26 d23c ee63 a6bc 57f4 e13b
000000a0: e9c1 2fbc 2600 053d 1ea7 293d 414c 86bc
000000b0: 229e 043c 13b6 c63c a85a 24bd f053 583d
000000c0: ef19 923b b188 4abb 7512 21bd fe65 303d
000000d0: 7d8f 48bd 4446 8b3d 4816 41bd 20f2 4b3d
000000e0: c811 f1bc d74b f73b 1ef1 8d3d d895 1fbd
000000f0: 7fa4 2ebd d4fb 863c 65b2 6ebc 5724 6e3d
00000100: 6fa1 15bd dab9 b5bb bb5f 3bbc f14f 49bd
00000110: 2943 fa3c 4f24 5fbc 12d0 8cbb 60c7 d9bb
00000120: b455 943d 28de 783d c624 c23c d53c 843c
00000130: f199 ca3c d935 3a3d 77d4 21bc 55db ecbc
00000140: 733b 87bd 5235 943d cf97 08bb d0ae 25bd
00000150: c34f 4c3d e627 a6bc 8175 02bb 3bc3 da3c
00000160: 041f 813d 104b 833d c557 203d c699 8bbd
00000170: 0473 293c 9b4c 843d 76d5 8e3d eee2 803d
00000180: 3e9a 5a3d 2d00 fe3c 4658 9f3d 8fdf 5d3d
00000190: 017b 703d f983 2ebd 2daa 173d 1a1f 173d
000001a0: 0bf4 213c 2693 76bd ebca 5b3c daf7 b2b9
000001b0: 5931 753d d329 01bc e67f 813d 2461 57bd
000001c0: 39be ca38 916a 77bd 426a 45bd e683 d7bc
000001d0: 4010 5abd 9e90 4fbd e2d1 c03c f8bd dcbc
000001e0: c405 05bd 22b7 c63a 4628 fcbc 4d10 72bd
000001f0: c3b4 79bd ff9c bfbb 76b7 873d 15ae 883d
00000200: db2c 26bb fe15 193c f1c6 373d ac45 063d
00000210: 3975 babc ea92 7fbd a284 1a3d fe02 893d
00000220: 5d1d 68bc 69b7 db3c f43a 853d 1214 663d
00000230: c4af 3bbb 5d1a 40bd 7d0a 093d b871 53bd
00000240: 99be 43bd 49d9 303d 0c06 aebc e5dd 463d
00000250: e735 2dbd e2fa a03c 1403 92bb d347 24bd
00000260: 2ca9 713d b2ee 233d c48e 463d fcf5 b93c
00000270: c9ba 863c 297f 4dbd 4dea 633c e17f 15bd
00000280: d787 c6bc 997e 983d 70c6 b73c 0ab1 793d
00000290: c5e8 25bc 7a7c 873d 82e1 343b 6d7b 16bd
000002a0: 5ae3 5f3d 935a 603d 3255 97bd f0e7 93bd
000002b0: d686 76bd 8fda 4f3d 1aec ecbc c49c 98bd
000002c0: c4bb b1bb 3e8e b13c c958 133b bd36 5d3d
000002d0: b204 633d 6e39 80bd 286d 953d 0354 203d
000002e0: d6ce 12bd 719a 893d 3f7b 7cbc 82c7 33bd
000002f0: 655d 82bd 9b82 9dbd 8980 b73b 9a33 14bb
00000300: 8463 8b3c c406 acbd 39fd 41bd f739 633d
00000310: 7dc8 c2bc f47a 68bd 7b7f 903c 13d1 d3bb
00000320: eb6d af3c b700 1a3d 32db 80bd e923 023c
00000330: 0997 eebc 9578 99bd 0db9 2a3d 85f7 fe3b
00000340: e769 4e3d 34b5 813d 5fcc 633d 3056 07bd
00000350: 5b6b bb3c f40f 3fbd ff40 433d f4db 553c
00000360: 0ca2 5a3d 6eef fbbc 3233 483d e935 a53d
00000370: 886e 5cbd 99b7 753c 62c8 56bd 3d11 153d
00000380: 2c24 19bd a3e3 3fbd 00bd 57bd 9b63 e13c
00000390: 6723 793d 5168 29bd d2a9 7a3d b1c6 793b
000003a0: bd77 80bd 14cf 543d b199 383d 01cf 1fbc
000003b0: a839 0e3d f8f8 a63d ae1c 913d 34c1 813c
000003c0: b404 54bc c303 7b3d 8bac 1c3d 2934 c4b9
000003d0: b500 3ebd e790 bc3c cf34 723d ba2d 82bd
000003e0: db25 2bbd 9017 363d 5d8c e03c 12ea bd3b
000003f0: 773e 293d 7540 48bb 6f7d 773d b775 66bd
0.056782488 0.030922996 -0.050835848 0.027757213 0.021091599 -0.012105927 -0.031615015 0.028024543
0.046252877 0.0714773 -0.01730717 0.10596116 0.055361174 -0.061475124 -0.013639063 -0.060680117
0.005107283 -0.045174707 -0.022783523 0.040819276 -0.050286185 -0.05497175 0.046214394 0.05148472
-0.068326056 -0.03435045 -0.052317835 0.04670091 0.0019691924 -0.06274504 0.04300935 0.078376055
-0.023638628 0.04810142 -0.020708509 -0.037005078 -0.011986078 0.025653325 -0.020311322 0.0068955827
-0.010727384 0.032470845 0.04141914 -0.016393783 0.008094342 0.024256742 -0.04012552 0.052814424
0.004458658 -0.0030904228 -0.039324243 0.043066017 -0.048964966 0.068005115 -0.04714039 0.049791455
-0.029427424 0.0075468826 0.06930755 -0.03896126 -0.042637344 0.016477503 -0.0145689 0.058140125
-0.03653091 -0.005545837 -0.011436398 -0.049148504 0.030549603 -0.0136194965 -0.004297265 -0.006646082
0.07242909 0.06075874 0.023699176 0.016142288 0.024731608 0.04546151 -0.009877316 -0.02891318
-0.06603136 0.072367325 -0.0020842438 -0.040449917 0.049880754 -0.020282697 -0.0019906464 0.026704421
0.06304744 0.064108014 0.039146204 -0.06816439 0.010342363 0.06459924 0.06974308 0.062932834
0.053369753 0.031005943 0.07780509 0.05416828 0.058711056 -0.042606328 0.037027527 0.036894895
0.0098848445 -0.060198925 0.013415079 -0.0003413547 0.059861515 -0.007883507 0.06323223 -0.052582875
9.667542e-05 -0.060404364 -0.04819704 -0.026308011 -0.053238153 -0.050675027 0.02353758 -0.026946053
-0.0324762 0.0015160779 -0.030780923 -0.059097577 -0.060963403 -0.005847573 0.06626789 0.066738285
-0.0025356326 0.009343622 0.04486746 0.032781288 -0.022760974 -0.062395968 0.037724145 0.06690024
-0.014167157 0.026820855 0.06505385 0.056171484 -0.00286387 -0.046900142 0.033457268 -0.051622123
-0.04778919 0.04317597 -0.021243118 0.04855146 -0.042287733 0.01965088 -0.0044559333 -0.04010756
0.058999225 0.04002256 0.048475996 0.022700302 0.016446488 -0.050170098 0.013910842 -0.036498908
-0.024234695 0.074460216 0.02243349 0.060959853 -0.010126297 0.06615539 0.0027600233 -0.0367388
0.05466018 0.05477388 -0.073892966 -0.07221973 -0.060187183 0.050745543 -0.028921176 -0.07451776
-0.0054239947 0.021674272 0.002248334 0.05400728 0.0554244 -0.06260954 0.072962105 0.03914262
-0.035841785 0.067189105 -0.0154102435 -0.043891437 -0.0636547 -0.07690927 0.0056000394 -0.0022613765
0.017015226 -0.08399728 -0.047360633 0.0554752 -0.02377724 -0.056757882 0.017638912 -0.0064641326
0.021414718 0.037598338 -0.06291808 0.007943132 -0.029124754 -0.07493702 0.041680384 0.0077809715
0.050393965 0.0633339 0.055614825 -0.03304118 0.02287834 -0.046646073 0.047669407 0.013052929
0.053377196 -0.030753817 0.04887695 0.08066923 -0.05381635 0.014997386 -0.052437194 0.036393393
-0.03738801 -0.04684795 -0.05267048 0.027513316 0.060824778 -0.04135925 0.06119711 0.0038112814
-0.06272838 0.051955298 0.045068447 -0.009753943 0.034722954 0.08152956 0.07085548 0.015839197
-0.012940574 0.061282884 0.038250487 -0.00037422896 -0.046387393 0.023018314 0.059132393 -0.06356378
-0.04178415 0.044456065 0.02741068 0.0057957256 0.041319337 -0.0030555998 0.060422357 -0.056264605

i2h.bias f4 [128]
00000000: 636b 663d 87fa 70bd bf5d 50bd 8b5e abbc
00000010: 397f f53c 97c7 8e3d 0d3f 863c 5528 11bd
00000020: c9b2 2b3d 2856 fc3b a12d 83bd c2e5 33bd
00000030: 0090 01bd 55dd cb3c 1240 153d 8922 3fbd
00000040: e159 3fbd bb80 543d 7aea 8abd 25b4 f03c
00000050: 7ac0 34bc 6d18 13bd 28ea 48bc 06d8 ba3c
00000060: b2b1 ed3c c82e 84bd e63d 083d 87a1 a0bb
00000070: 8b5b 01bc a200 013d 9acc 5a3d 3241 9b3c
00000080: 6480 323d c400 ddbb 8a9d 913c f56e 893d
00000090: eb00 95bd f067 a63c ec0c 7d3d e19b d3bc
000000a0: 8f58 c83c 60b5 993b 507f 2b3d 030e 2bbd
000000b0: 3c90 09bd c51d 5f3d 86d0 bbbd f85c 143c
000000c0: 8629 2cbd f726 bd3b 82b5 36bc bfb1 1a3c
000000d0: 32c4 b2bc 7547 9ebc efe1 243d 1f45 0e3d
000000e0: 8644 50bd 0814 683d 1ecb dbba d10b a9bd
000000f0: 81d7 8f3d 0a19 82bd 4e72 163d 3e49 e4bc
00000100: a0c4 7bbc 178c ec3c aac6 193d 363a cbbc
00000110: 93b6 05bd 216b 98ba a1d6 e7bc ec46 163d
00000120: f431 e1bc d5e9 8a3d 0b4e 24bc 0268 133d
00000130: ceca edbc f1b3 9ebb c2c6 e8bc 1c7a 743c
00000140: 6988 e8bc 47ac 37bc 44ad 3abd fd2e 35bb
00000150: d6d1 9e3d 0b62 6b3d d6d5 e13c d4f4 173d
00000160: c6dd 72bd 4f7f d3bb acda 523d 4e3e 543d
00000170: 4c48 4c3d 1c15 483d 7634 893c e3f1 46bc
00000180: 2b97 17bd 2095 b83c 31b5 213d bc7a 313d
00000190: 50a2 973d 2f98 2c3d 576d 643c 8612 21bd
000001a0: 62de 73bc 20f0 df3c 3639 54bb f41c 1d3d
000001b0: 693a 8bbd 4df7 1abc 3a91 2fbb a630 9ebd
000001c0: 2f73 003c 9bf7 6f3c 1739 1f3d 7a64 d8bb
000001d0: 11ab 1bbd b10b 65bc 35c8 d83b 7241 f5bc
000001e0: 5945 54bb c5cc e73c 3cf3 ebbc a79c 643d
000001f0: e23a 5d3d 5ddf 283d 7fec bdbc a49a 273d
0.056254756 -0.05883267 -0.050870653 -0.020919105 0.029967891 0.069716625 0.016387487 -0.035438854
0.04191855 0.0077007003 -0.064051874 -0.043920286 -0.03163147 0.024885813 0.036438055 -0.046663795
-0.046716575 0.05188058 -0.06783004 0.029382775 -0.011032218 -0.035911966 -0.012262858 0.022808086
0.029015396 -0.06454235 0.033262156 -0.004902068 -0.007895361 0.031494744 0.05341778 0.018951986
0.043579474 -0.006744476 0.017775316 0.067106165 -0.07275566 0.020313233 0.0617799 -0.025831165
0.02445629 0.004690811 0.04186946 -0.04176141 -0.03358482 0.05447175 -0.09170632 0.009055369
-0.042031787 0.0057724672 -0.011151673 0.009441792 -0.021822069 -0.019321183 0.04025453 0.034733888
-0.0508466 0.05665973 -0.0016768908 -0.08254207 0.07023526 -0.06352432 0.036730103 -0.027866956
-0.015366703 0.028875394 0.037542976 -0.02480803 -0.03264482 -0.0011628607 -0.028300585 0.03668873
-0.02748964 0.06782881 -0.0100283725 0.03598786 -0.029027369 -0.004843228 -0.028415088 0.014921691
-0.028385358 -0.011210508 -0.045575395 -0.0027646415 0.07754867 0.057466548 0.027567785 0.03709872
-0.05929353 -0.0064543854 0.051478073 0.05181723 0.049873635 0.048848256 0.016748648 -0.012142631
-0.0370094 0.022532046 0.03947944 0.04332994 0.074040055 0.04213732 0.013942084 -0.039324306
-0.014884563 0.02733618 -0.0032382733 0.03835769 -0.0679825 -0.009458375 -0.0026789443 -0.07724123
0.007839962 0.014646436 0.038872804 -0.0066037746 -0.03800494 -0.013979838 0.0066156634 -0.029938433
-0.0032389967 0.028295884 -0.028802507 0.055813458 0.054011233 0.04122864 -0.02318406 0.04091896

h2h.weight f4 [128, 128]
00000000: f820 0cbd accb 79bc c48c 3bbd f781 943b
00000010: 3544 5abb eb49 9fbd 077d ce3c 67a9 80bd
00000020: 96a2 4c3d 9033 c7bd c601 b33c c9c6 c8bc
00000030: 6054 6e3d b1b9 c53c 4841 c13c c52e 08bd
00000040: 337b 8f3c 6d6a ddbd 5a3a 0bbd 6eb4 c5bd
00000050: ed3d 81bc 1e51 26bd 407c 42bd 9482 94bc
00000060: bb19 63bd 91c0 6e3d a34f dcbd 68b7 a0bd
00000070: 62d0 0b3d 891d 5ebd 64af bdbd 50bc b43d
00000080: 0843 9b3d 40b1 5fbc f49f 9bbd 7d53 3f3c
00000090: 923c 213d ad1d 4f3d 7f73 ee3c 4d0e f9bc
000000a0: 42c2 9e3d 4d25 62bd 1664 393d c52f 92bd
000000b0: 8ff5 82bd e13b 8f3c 5e48 013c 2195 45bd
000000c0: 4af1 57bd 784a 64bd cbc4 75bc d04b 493d
000000d0: 6744 95bd 5daa ceba 4459 54bc dc7e 92bd
000000e0: 99b3 303d 3c33 03bd 081a 8b3d eaba 863d
000000f0: ca34 99bd 510a 973d e5e8 193d 9893 7fbd
00000100: 0e6e cebd 847f 303d bafa 79bd b6bc 63bc
00000110: 07bc 983d c36c 12bc 064e 50bd 4ed5 88bd
00000120: 813a 37bd 40c0 04bd 9134 943d dda2 903c
00000130: 9aab ba3d 846c 98bd c7e0 96bd 5703 91bc
00000140: 06c6 233d eaf2 b73d 13b1 a9bc bfd5 75bd
00000150: 5ba1 16bc c8c8 bfbd a57b 733d 1c3e 19bd
00000160: 8634 37bd a45a 0fbd 60b1 813d 5257 03bd
00000170: 730b a93c 5fe6 123c 97ab 0a3d dc35 83ba
00000180: 3a62 40bd e9ed 61bd 64cf 8c3c 5f06 683d
00000190: 2eb2 16bd 9d8a 9b3c 089f 77bd 7ce3 88bd
000001a0: 3cc0 bdbd f305 7cbd 2782 56bd a4ba b73d
000001b0: e78d 9bbd 344c 1cbd 7595 45bd ce18 633d
000001c0: 8b85 383d beb4 31bd 8843 2f3d d04c bcbd
000001d0: 7087 a8bd bef8 afbd f6c9 55bd a54d 943d
000001e0: 7d26 2b3d 644c 803d 9daa 1f3d af7b 66bc
000001f0: 02af 713d ea4e d43d e671 8e3d 24a1 983c
00000200: 170e 843c 14f1 1cbd 5f3f b53d 767e 6e3d
00000210: 5795 953d 821e 5f3d fce5 923d 26b8 573d
00000220: 2942 6a3d efed 4bbd 0c1d 5dbd 2255 b23c
00000230: 69a0 96bd d2b3 683d 1849 24bd b4aa 81bb
00000240: ba41 a4bc f1ad 3a3d 7a9d 9c3d e2ab 233d
00000250: 8d44 8b3d ea71 9bbd 20aa 353a 5585 5abd
00000260: 08c7 19bd b18f 383d 83ef 93bd 0a1e a93d
00000270: 24e3 6b3d 2753 aebd b9aa 42bd 3729 2bbd
00000280: dc6b dd3b 94da 9c3c 4942 ad3d 86ac 3ebd
00000290: 029d c7bd 9ecc 7e3c 8cb4 0d3a aa83 303c
000002a0: 442e b4bc 17c4 78bd c181 72bd df6d 383d
000002b0: 9c96 44bd 0b2a 6b3d ed06 89bc b6d8 afbd
000002c0: a312 303d 4c69 903c e7c3 4d3d d650 d03d
000002d0: bc55 ac3d 3c14 abbd 1bc3 3cbd 2ff5 0b3d
000002e0: 9625 0fbc aef8 6ebc 3c7d 883d 7489 46bd
000002f0: b3c2 c13d 1320 d1bd 6c3b 8a3d a479 ac3d
00000300: cd14 3abc 9da2 40bd 5324 6e3d 67b6 93bc
00000310: efa1 4d3b dfca 5f3c 1a98 99bd fa9d ae3c
00000320: 77c6 823d deb0 b43d e59d 473c 43f6 6e3c
00000330: 6fb3 943d 80ab ecbb c870 12bc de81 dbbb
00000340: 9df4 943d 6215 4e3d 7c1f ae3c b2c9 913d
00000350: 4c85 7abd 315c 9d3c d113 673d 3322 0d3d
00000360: 672a 36bd f494 9bbd acf9 5abd 5179 8d3d
00000370: e35a 213d cac4 793c b4cb 893c 2b65 84bd
00000380: 1d0b 1e3c b403 03bd b613 9abd a169 c1bb
00000390: 3bc1 24bc bf1d 223d 9161 40b9 764a c2bc
000003a0: 65f0 8b3a 64fe 59bd 7b77 d1bd 94eb 99bd
000003b0: 1646 87bd 2d36 9f3d b361 03bc 972c c3bd
000003c0: 1675 893d 56a8 1f3d fadc 543d 531b a7bd
000003d0: bb0b dbbb 3d76 893d 2fa6 74bd 6933 693d
000003e0: e8d1 99bd 003d a93d ecf3 9dbd 6d2a 4c3d
000003f0: eba5 a1bd 6935 50bd 195e a03d e8ca d6bc
-0.03421113 -0.015246313 -0.04578854 0.0045320946 -0.0033304815 -0.077777706 0.025206102 -0.06282311
0.04995974 -0.09726632 0.021851432 -0.02450885 0.058185935 0.024136396 0.023590699 -0.033247728
0.0175148 -0.10811315 -0.033991195 -0.09653555 -0.015776599 -0.040604703 -0.047481775 -0.01812867
-0.05544446 0.058289114 -0.10757377 -0.07847482 0.034134276 -0.054227386 -0.09261969 0.0882498
0.075811446 -0.0136531 -0.07598868 0.01167762 0.039364405 0.05056541 0.029107807 -0.030402327
0.077518955 -0.055211354 0.045261465 -0.071380176 -0.06394493 0.017484607 0.007890789 -0.048237924
-0.052720346 -0.05573508 -0.015000532 0.049144566 -0.07288437 -0.0015767325 -0.012960736 -0.07153103
0.043140028 -0.032031283 0.067920744 0.0657862 -0.07480772 0.073750146 0.03757562 -0.062396616
-0.10079585 0.04309036 -0.061030127 -0.013899973 0.07457738 -0.008937064 -0.05085566 -0.0668131
-0.044733528 -0.032409906 0.07236589 0.017655784 0.09114762 -0.07442573 -0.073670916 -0.017701788
0.03998377 0.08981879 -0.020714318 -0.060018297 -0.009193744 -0.09364468 0.05944409 -0.037412748
-0.044727825 -0.03499855 0.0633266 -0.032065697 0.020635342 0.008966058 0.033855047 -0.0010010558
-0.046968676 -0.05515853 0.017188735 0.0566467 -0.03679102 0.018986994 -0.0604544 -0.06684014
-0.092651814 -0.06152911 -0.052370217 0.08971146 -0.07595425 -0.03815861 -0.048238236 0.055443577
0.04504923 -0.04338526 0.042789012 -0.09194338 -0.08228958 -0.08592366 -0.052194558 0.07241372
0.041784752 0.0626457 0.03898107 -0.014067574 0.05900479 0.10366614 0.06955318 0.018631525
0.01612 -0.038315848 0.08849978 0.05822607 0.07303875 0.054472454 0.07172772 0.052665852
0.057192 -0.049787458 -0.05398278 0.02176911 -0.073548146 0.056812115 -0.04010877 -0.003957117
-0.020050872 0.04557604 0.07647224 0.039958842 0.068001844 -0.07590087 0.00069299527 -0.05334981
-0.037543327 0.04505891 -0.072234176 0.082576826 0.057589665 -0.08511954 -0.047526095 -0.041787352
0.0067572426 0.019147195 0.084599085 -0.04655125 -0.09746744 0.015551714 0.0005405627 0.010773579
-0.021994717 -0.06073388 -0.059205774 0.045026656 -0.047995195 0.057413142 -0.016726935 -0.08586256
0.042986523 0.017628334 0.050235655 0.10171668 0.0841479 -0.08353469 -0.046084505 0.034169372
-0.0087369885 -0.014585657 0.066645116 -0.04847093 0.09460964 -0.10211196 0.06749615 0.084216386
-0.011357498 -0.04703008 0.05814011 -0.018031312 0.0031377038 0.013659208 -0.07499714 0.021315563
0.063855104 0.08822797 0.012183641 0.014585081 0.07260787 -0.007222593 -0.008938022 -0.006698831
0.07273219 0.05031336 0.021255247 0.071185485 -0.061162278 0.019209 0.056415383 0.034456443
-0.04447403 -0.0759677 -0.053460762 0.06907905 0.039393317 0.015244672 0.016820766 -0.06464609
0.009646204 -0.031985953 -0.07523291 -0.0059024845 -0.010055835 0.03957915 -0.00018346893 -0.023717146
0.0010676502 -0.05322112 -0.10227867 -0.07515636 -0.06605165 0.07774005 -0.008018899 -0.09529989
0.067117855 0.038978897 0.051968552 -0.081595086 -0.006684748 0.06712005 -0.059728798 0.056933794
-0.075107396 0.08263588 -0.0771254 0.049845148 -0.078929745 -0.050832186 0.07830448 -0.0262198

h2h.bias f4 [128]
00000000: 1b39 8dbd cac0 d2bb 76e5 d43c 05ef 943b
00000010: 04ea 31bb 36b1 fcbb c49b 173d d73a c1bc
00000020: 49b4 e5bb 27a3 953d c5b0 15bd edda c83d
00000030: 4877 b43d 91ef 963d 0b18 babc 61cc 41bc
00000040: 7c21 b43d 35ba fbbc 7bc1 bbbd 792a 2fbd
00000050: 5e3d 633c bca8 6bbd 8970 d8bd 525f 763d
00000060: 77e8 1e3d d1d2 7ebb 76f3 12bd 2bd7 003d
00000070: 83e5 aabb 750a 0b3d 6faa 92bd 54d5 f73c
00000080: 3156 57bd 1bec 6c3d ec4d 463d 2f01 c5b9
00000090: a1e0 acbc 4b69 ccbd c0bd a63d 7a49 95bd
000000a0: 16fb c53d c0a4 053d 507b 833d 22ba c0bc
000000b0: 5b75 d0bd 6545 b33c e548 8f3d 2348 aabc
000000c0: 96f0 373d aa94 5b3c 6c79 b6bc 2cdf fabc
000000d0: a7a1 7d3b 171c 713c c87d 71bd 2dab 83bd
000000e0: d0be 933d 30dd 403d cdfb 1a3d 8215 2cbd
000000f0: 527e 353d 86f3 bbbb d0f6 a13b 2fc4 093d
00000100: 0a65 833a 4923 1d3d 1f05 7d3b 013e 9fbd
00000110: 2fa8 31bd 7ad0 b9bd 2f19 893d 8ad4 e7bc
00000120: 59b2 0f3d c347 d03d 2b33 cbbc 354c 01bd
00000130: e09f 123d 3e10 ad3d 467c c63d eaa5 39bd
00000140: a613 183d 865e c9bc b870 203d b771 2dbb
00000150: 891f bb3d f7ae 5f3c 7afd 993d 0ad7 7a3c
00000160: 5c7e 3b3d 1929 95bc 9cae 31bd 83ac a2bd
00000170: 2b4a 5abd 94e0 05bc 3533 943d 8ef0 603d
00000180: 4b77 a43d 7e2f 363b 4af0 80bd 4cc9 763d
00000190: 81a8 c43d 9577 9a3d 1710 133d 0de6 723d
000001a0: e6fc 953d 99a6 313d fcca e73c baab ac3c
000001b0: f248 81bc c9ee ddbc 29c1 f23c dd5c 883d
000001c0: 29e3 dcbc cc92 5d3d f66e 69bb ea40 0a3c
000001d0: 3b74 8c3d e9be 4cbd cfcb ac3c 9df5 533d
000001e0: 2c1d 6abc 6ca5 7dbd 1eec 093d ff71 04bd
000001f0: 2b93 9b3c c038 073a 8912 90bd 401f e53c
-0.06895658 -0.0064316737 0.025988322 0.004545095 -0.002714754 -0.007711555 0.037013784 -0.023587627
-0.007010017 0.073065095 -0.036545534 0.09807382 0.088118136 0.073699124 -0.022716543 -0.011828513
0.08795449 -0.030728439 -0.09167763 -0.042765114 0.013869612 -0.057533965 -0.105683394 0.0601495
0.038795915 -0.003888298 -0.035876714 0.0314552 -0.005215348 0.03394552 -0.07161414 0.03025309
-0.052572433 0.057842355 0.048414156 -0.0003757565 -0.021103205 -0.099810205 0.08141661 -0.07289405
0.096670315 0.03262782 0.06420004 -0.023526255 -0.10178634 0.021883676 0.069963254 -0.02078635
0.044907175 0.0134021435 -0.022274695 -0.030623995 0.0038701089 0.01471617 -0.058957845 -0.064291336
0.07214129 0.04708594 0.037837792 -0.0420127 0.04430992 -0.0057358174 0.0049427524 0.03363436
0.0010024619 0.03836373 0.0038607789 -0.07775498 -0.043373283 -0.09072967 0.066942565 -0.028299589
0.035082195 0.101699375 -0.024804672 -0.031566817 0.035797 0.084503636 0.09691672 -0.045324244
0.037128113 -0.024581205 0.039169997 -0.0026465484 0.09136874 0.013652555 0.0751905 0.015310058
0.045774803 -0.018208073 -0.04337941 -0.0794306 -0.05329339 -0.008171219 0.072363295 0.05491691
0.08030566 0.0027799304 -0.062958315 0.060250565 0.09602452 0.0754234 0.035904016 0.059301425
0.07323627 0.04337177 0.028295033 0.02107798 -0.015781853 -0.0270914 0.029633122 0.06658337
-0.026963787 0.054095075 -0.0035619116 0.008438328 0.06858107 -0.049986754 0.021093277 0.051747907
-0.014289182 -0.061925337 0.033672445 -0.032335278 0.018991074 0.0005158298 -0.07034785 0.027969003

i2o.weight f4 [8, 185]
00000000: 1b18 d0bd fc44 db3c f69e b53c f666 39be
00000010: 2d31 aebe ef88 00bd adc5 debd 1402 ae3c
00000020: b445 e83c c6bd 8dbd 3a7e 6cbd 83a8 34bd
00000030: 73b1 8ebd ed1a 3dbe 6293 85bd 8316 cbbc
00000040: e046 2f3d cf71 25bc 9152 883e 0452 60bd
00000050: e2ac 5bbd 1e64 f1bc ca0b f83c f8a2 5a3d
00000060: aa6e 74bd 380e fbbc 2eaf 93bc a981 6a3d
00000070: dbc7 313d b023 833d aab4 ea3d c008 8fba
00000080: aceb a8bc c879 f13c 4c79 1f3c 4950 6ebd
00000090: 5056 a0bb d4f9 053e b025 053c e414 37bd
000000a0: 523b 8bbd 3849 ca3d 4d03 a5bd 6e71 463d
000000b0: edb6 81bd df52 b9bd 1752 f83d b571 d3bc
000000c0: c353 dd3d dc83 453c d83a 78bc 80d3 a5bc
000000d0: 26cd 4a3f 079f 84bd b884 29bc 70e4 df3b
000000e0: b809 0b3d 8c4b 0fbd 9ec6 413d 7e63 243c
000000f0: 2c95 3b3d 19b9 8bbc 22eb 4e3c 48e2 5d3d
00000100: de65 7ebd ee6e 303d 1d3c d3bc 1109 6fbc
00000110: ed43 433d ab87 42bc f89c 0ebc 6881 1fbd
00000120: a63a 363c 6e7a bc3d bca8 8cbd 4971 a1bd
00000130: 0e82 b8bb c394 92bc a0b8 26bd cd72 a4bc
00000140: 9f74 c43d 984b 0e3d fe50 85bd bd7b ea3c
00000150: 267b 0d3d e25f 93bd ecfb 943d 07b1 c6bc
00000160: 4953 b8bc d696 32bd 2387 71bd 98e5 22bd
00000170: df47 a53c f808 c13c e6c4 d7bb 8b5b 9f3d
00000180: 81f6 66bb c625 163d 416f fdbc 301c 3ebc
00000190: 1835 b7bd ca77 c0bd a293 113d d7ae 753c
000001a0: ea04 ccbc f808 b1bc 5db8 50bd 98a5 97bd
000001b0: 65e2 8ebd 4799 4d3d 625a cfbc b2e2 3a3a
000001c0: 7e78 c1bb 5181 a53d dd7a 033d 1aed e1ba
000001d0: 8170 96bd 9c86 54bc 0626 24bc 76e9 643d
000001e0: 9b2b 1bbd b471 16bd acd9 c1bc c097 d7bd
000001f0: 9538 aabc 2c2f a43d 7ec4 853d 3f3a 9bbc
00000200: 69f1 eebc a3a5 5c39 a459 3bbc 08a2 c13c
00000210: 2082 82bd 2953 843d d877 943d 4122 6d3d
00000220: 0b76 b6bd 3606 503d 341a 853d ba5b 553d
00000230: 5408 633b d3b2 d93d 37f8 5abd 4bf1 acbc
00000240: fbb9 3a3c d4e9 b63d fbbe 9cbc df28 613d
00000250: 1a73 93bc 2783 c53c e9a7 3cbd 3fc5 debd
00000260: 2369 c63c 4d53 e73d c046 c73d 6caa 6a3d
00000270: fba9 b13d 255d bb3d 4240 a1bc 7e73 f7bc
00000280: 010d 00bd 5862 bb3d f64c df3b 2586 a53d
00000290: b585 89bc 83c1 11bd f709 8fbc e323 783d
000002a0: 4164 1bbd 2e87 813d 53b4 b53c a878 803d
000002b0: b469 963d ad7a 933c 7ef9 9cba fa06 193d
000002c0: ca26 673d 4421 3cbb 37e1 81bd 260e 54bc
000002d0: 1b4e df39 885a 89b9 d090 8ebc fc2b 8c3d
000002e0: a18b a23d 448a 1f3c ff3d 62bd a23a 4dbd
000002f0: eadc a83e 08e8 a9be 4251 1d3e bc6d c7bd
00000300: 031a c23c 202b 75bd f038 833d 2d53 85bd
00000310: 3b15 1ebd b8e2 78bb 8708 2abd 70f4 f73e
00000320: cf54 b1bb 82f2 9dbc f32c 8bbe c354 643c
00000330: 4456 a43e 30b7 973c 1c01 853c 7a83 b6bd
00000340: 887b 773c 8a7e 953c de92 2e3d c8a3 1abd
00000350: a90b 9c3b 5a0e d23c f60b bbbc 0c80 dbbd
00000360: 2841 783d fa1a 253d 42ec 38bd 350e 813d
00000370: d0f2 6c3d d49b a93c 8a19 5ebd b0f9 aebc
00000380: 5114 9bbc 1119 51bd afb2 b6bd 7126 17bd
00000390: aa65 3d3d 30fd 0c3d 8343 51bd 600d 87bd
000003a0: 174d 493d c3d6 24bd 6ce6 c8bc 9caf 893d
000003b0: e043 773b fa43 87be b073 24bd 0087 753d
000003c0: beea d9bc f6ea 0d3d bbcd 19be 212d 013e
000003d0: de4d 1d3d ed31 5d3b 969e a2bd bcef 8dbb
000003e0: bcd4 23bd 2610 073d 6ef2 5ebd 75aa f4bc
000003f0: a957 103e 00bb 96bd 6dbe 4f3d b4c3 51bd
-0.10160848 0.026766293 0.022170525 -0.18105683 -0.34021893 -0.03138059 -0.108775474 0.021241225
0.02835355 -0.06920962 -0.057737567 -0.044106018 -0.069674395 -0.18467303 -0.06522252 -0.024791008
0.0427922 -0.010097935 0.26625493 -0.054765716 -0.05363167 -0.029466685 0.030279059 0.053378075
-0.05967585 -0.030646428 -0.018027868 0.05725256 0.043403488 0.06403291 0.1146024 -0.0010912642
-0.02062019 0.029477015 0.009733509 -0.058182035 -0.0048931018 0.13083583 0.008126661 -0.044697657
-0.06798424 0.098772466 -0.0805727 0.04844802 -0.063337184 -0.090490095 0.121250324 -0.025811056
0.10806992 0.0120553635 -0.015150748 -0.020242453 0.7921928 -0.064756446 -0.010346584 0.006832652
0.033944815 -0.034984156 0.047308557 0.010033486 0.04579656 -0.017056035 0.012629302 0.054170877
-0.062108867 0.04307454 -0.0257855 -0.014589564 0.0476722 -0.011873166 -0.008704416 -0.03894177
0.011122381 0.09203039 -0.06868121 -0.078829356 -0.005630738 -0.0178932 -0.040703416 -0.020074273
0.09592556 0.03474006 -0.06509589 0.028623456 0.03454127 -0.071960226 0.07274613 -0.024254335
-0.022500651 -0.04360088 -0.058966767 -0.03976974 0.020175872 0.023563847 -0.0065847514 0.07781132
-0.0035242143 0.036657117 -0.030936839 -0.0116034 -0.08945674 -0.09397848 0.035541184 0.014995298
-0.024904687 -0.021610722 -0.050957073 -0.074046314 -0.06976775 0.050195005 -0.025311653 0.0007129117
-0.0059042564 0.08081306 0.032099593 -0.00172368 -0.07345677 -0.0129715465 -0.010018831 0.05588671
-0.037883382 -0.03672953 -0.023663364 -0.10526991 -0.020778934 0.0801681 0.065316185 -0.018948672
-0.029167848 0.0002104254 -0.011434946 0.023636833 -0.063724756 0.06461174 0.07249421 0.057893995
-0.08909234 0.050787173 0.064991385 0.05208943 0.0034642415 0.10629811 -0.053459372 -0.021111151
0.01139688 0.08931318 -0.019134035 0.05497062 -0.01799922 0.02411039 -0.04605857 -0.108774655
0.024220055 0.11295185 0.09730291 0.057291433 0.08674999 0.09148625 -0.01968396 -0.030206438
-0.0312624 0.09149617 0.0068145944 0.08082227 -0.01678739 -0.035584938 -0.017460806 0.0605811
-0.037937406 0.063246116 0.022180712 0.06273013 0.0734438 0.018002832 -0.001197621 0.03736017
0.056433477 -0.0028706351 -0.063417844 -0.012942826 0.00042592068 -0.00026198127 -0.017403036 0.06844327
0.07936788 0.009737555 -0.055234905 -0.050104745 0.32981044 -0.33184838 0.15363029 -0.09737727
0.023694044 -0.05985558 0.06407344 -0.06510005 -0.038594466 -0.0037976932 -0.04151204 0.4842868
-0.0054117213 -0.019280676 -0.2718273 0.013936224 0.32097065 0.018519968 0.01623588 -0.08911796
0.015105136 0.018248815 0.042620532 -0.03775385 0.004762132 0.025641609 -0.022832852 -0.107177824
0.060609013 0.04030893 -0.045147188 0.06301538 0.05784875 0.020704187 -0.054223575 -0.021359295
-0.018930586 -0.051049296 -0.089208 -0.036901895 0.046239533 0.034421146 -0.051089775 -0.06594348
0.049145784 -0.040243875 -0.024523936 0.06722948 0.0037729666 -0.2641905 -0.04014939 0.0599432
-0.026601192 0.034647904 -0.15019886 0.12614872 0.038404338 0.0033751682 -0.07940404 -0.004331557
-0.0399978 0.032974385 -0.054430418 -0.029866436 0.1409594 -0.07359886 0.050718714 -0.051212028

i2o.bias f4 [8]
00000000: 9b5e a13d da6a a9bc 57a3 eabb 5f55 b13d
00000010: 1f0f 56be f258 0fbe 23cd 4e3d c932 433c
0.07879373 -0.020680834 -0.007160585 0.08658861 -0.20904206 -0.13998774 0.050488602 0.011913964
